…
I0828 16:46:26.195628  2555 net.cpp:322] The NetState phase (0) differed from the phase (1) specified by a rule in layer accuracy
I0828 16:46:26.195888  2555 net.cpp:49] Initializing net from parameters: 
name: "AlexNet"
state {
  phase: TRAIN
}
layer {
  name: "data"
  type: "Data"
  top: "data"
  top: "label"
  include {
    phase: TRAIN
  }
  transform_param {
    mirror: false
    crop_size: 227
    mean_file: "/home/ubuntu/sb/capstone/transfer-learning/data/alexnet_4/alexnet_4_mean.binaryproto"
  }
  data_param {
    source: "/data/train_lmdb"
    batch_size: 150
    backend: LMDB
  }
}
layer {
  name: "conv1"
  type: "Convolution"
  bottom: "data"
  top: "conv1"
  param {
    lr_mult: 1
    decay_mult: 1
  }
  param {
    lr_mult: 2
    decay_mult: 0
  }
  convolution_param {
    num_output: 96
    kernel_size: 11
    stride: 4
    weight_filler {
      type: "gaussian"
      std: 0.01
    }
    bias_filler {
      type: "constant"
      value: 0
    }
  }
}
layer {
  name: "relu1"
  type: "ReLU"
  bottom: "conv1"
  top: "conv1"
}
layer {
  name: "norm1"
  type: "LRN"
  bottom: "conv1"
  top: "norm1"
  lrn_param {
    local_size: 5
    alpha: 0.0001
    beta: 0.75
  }
}
layer {
  name: "pool1"
  type: "Pooling"
  bottom: "norm1"
  top: "pool1"
  pooling_param {
    pool: MAX
    kernel_size: 3
    stride: 2
  }
}
layer {
  name: "conv2"
  type: "Convolution"
  bottom: "pool1"
  top: "conv2"
  param {
    lr_mult: 1
    decay_mult: 1
  }
  param {
    lr_mult: 2
    decay_mult: 0
  }
  convolution_param {
    num_output: 256
    pad: 2
    kernel_size: 5
    group: 2
    weight_filler {
      type: "gaussian"
      std: 0.01
    }
    bias_filler {
      type: "constant"
      value: 0.1
    }
  }
}
layer {
  name: "relu2"
  type: "ReLU"
  bottom: "conv2"
  top: "conv2"
}
layer {
  name: "norm2"
  type: "LRN"
  bottom: "conv2"
  top: "norm2"
  lrn_param {
    local_size: 5
    alpha: 0.0001
    beta: 0.75
  }
}
layer {
  name: "pool2"
  type: "Pooling"
  bottom: "norm2"
  top: "pool2"
  pooling_param {
    pool: MAX
    kernel_size: 3
    stride: 2
  }
}
layer {
  name: "conv3"
  type: "Convolution"
  bottom: "pool2"
  top: "conv3"
  param {
    lr_mult: 1
    decay_mult: 1
  }
  param {
    lr_mult: 2
    decay_mult: 0
  }
  convolution_param {
    num_output: 384
    pad: 1
    kernel_size: 3
    weight_filler {
      type: "gaussian"
      std: 0.01
    }
    bias_filler {
      type: "constant"
      value: 0
    }
  }
}
layer {
  name: "relu3"
  type: "ReLU"
  bottom: "conv3"
  top: "conv3"
}
layer {
  name: "conv4"
  type: "Convolution"
  bottom: "conv3"
  top: "conv4"
  param {
    lr_mult: 1
    decay_mult: 1
  }
  param {
    lr_mult: 2
    decay_mult: 0
  }
  convolution_param {
    num_output: 384
    pad: 1
    kernel_size: 3
    group: 2
    weight_filler {
      type: "gaussian"
      std: 0.01
    }
    bias_filler {
      type: "constant"
      value: 0.1
    }
  }
}
layer {
  name: "relu4"
  type: "ReLU"
  bottom: "conv4"
  top: "conv4"
}
layer {
  name: "conv5"
  type: "Convolution"
  bottom: "conv4"
  top: "conv5"
  param {
    lr_mult: 1
    decay_mult: 1
  }
  param {
    lr_mult: 2
    decay_mult: 0
  }
  convolution_param {
    num_output: 256
    pad: 1
    kernel_size: 3
    group: 2
    weight_filler {
      type: "gaussian"
      std: 0.01
    }
    bias_filler {
      type: "constant"
      value: 0.1
    }
  }
}
layer {
  name: "relu5"
  type: "ReLU"
  bottom: "conv5"
  top: "conv5"
}
layer {
  name: "pool5"
  type: "Pooling"
  bottom: "conv5"
  top: "pool5"
  pooling_param {
    pool: MAX
    kernel_size: 3
    stride: 2
  }
}
layer {
  name: "fc6"
  type: "InnerProduct"
  bottom: "pool5"
  top: "fc6"
  param {
    lr_mult: 1
    decay_mult: 1
  }
  param {
    lr_mult: 2
    decay_mult: 0
  }
  inner_product_param {
    num_output: 4096
    weight_filler {
      type: "gaussian"
      std: 0.005
    }
    bias_filler {
      type: "constant"
      value: 0.1
    }
  }
}
layer {
  name: "relu6"
  type: "ReLU"
  bottom: "fc6"
  top: "fc6"
}
layer {
  name: "drop6"
  type: "Dropout"
  bottom: "fc6"
  top: "fc6"
  dropout_param {
    dropout_ratio: 0.5
  }
}
layer {
  name: "fc7"
  type: "InnerProduct"
  bottom: "fc6"
  top: "fc7"
  param {
    lr_mult: 1
    decay_mult: 1
  }
  param {
    lr_mult: 2
    decay_mult: 0
  }
  inner_product_param {
    num_output: 4096
    weight_filler {
      type: "gaussian"
      std: 0.005
    }
    bias_filler {
      type: "constant"
      value: 0.1
    }
  }
}
layer {
  name: "relu7"
  type: "ReLU"
  bottom: "fc7"
  top: "fc7"
}
layer {
  name: "drop7"
  type: "Dropout"
  bottom: "fc7"
  top: "fc7"
  dropout_param {
    dropout_ratio: 0.5
  }
}
layer {
  name: "fc8_food"
  type: "InnerProduct"
  bottom: "fc7"
  top: "fc8_food"
  param {
    lr_mult: 1
    decay_mult: 1
  }
  param {
    lr_mult: 2
    decay_mult: 0
  }
  inner_product_param {
    num_output: 12
    weight_filler {
      type: "gaussian"
      std: 0.01
    }
    bias_filler {
      type: "constant"
      value: 0
    }
  }
}
layer {
  name: "loss"
  type: "SoftmaxWithLoss"
  bottom: "fc8_food"
  bottom: "label"
  top: "loss"
}
I0828 16:46:26.197805  2555 layer_factory.hpp:77] Creating layer data
I0828 16:46:26.201931  2555 net.cpp:106] Creating Layer data
I0828 16:46:26.201964  2555 net.cpp:411] data -> data
I0828 16:46:26.202023  2555 net.cpp:411] data -> label
I0828 16:46:26.202049  2555 data_transformer.cpp:25] Loading mean file from: /home/ubuntu/sb/capstone/transfer-learning/data/alexnet_4/alexnet_4_mean.binaryproto
I0828 16:46:26.202786  2567 db_lmdb.cpp:38] Opened lmdb /data/train_lmdb
I0828 16:46:26.255429  2555 data_layer.cpp:41] output data size: 150,3,227,227
I0828 16:46:26.444587  2555 net.cpp:150] Setting up data
I0828 16:46:26.444741  2555 net.cpp:157] Top shape: 150 3 227 227 (23188050)
I0828 16:46:26.444762  2555 net.cpp:157] Top shape: 150 (150)
I0828 16:46:26.444771  2555 net.cpp:165] Memory required for data: 92752800
I0828 16:46:26.444792  2555 layer_factory.hpp:77] Creating layer conv1
I0828 16:46:26.444835  2555 net.cpp:106] Creating Layer conv1
I0828 16:46:26.444849  2555 net.cpp:454] conv1 <- data
I0828 16:46:26.444877  2555 net.cpp:411] conv1 -> conv1
I0828 16:46:26.506079  2568 blocking_queue.cpp:50] Waiting for data
I0828 16:46:27.041426  2555 net.cpp:150] Setting up conv1
I0828 16:46:27.041491  2555 net.cpp:157] Top shape: 150 96 55 55 (43560000)
I0828 16:46:27.041502  2555 net.cpp:165] Memory required for data: 266992800
I0828 16:46:27.041544  2555 layer_factory.hpp:77] Creating layer relu1
I0828 16:46:27.041568  2555 net.cpp:106] Creating Layer relu1
I0828 16:46:27.041577  2555 net.cpp:454] relu1 <- conv1
I0828 16:46:27.041589  2555 net.cpp:397] relu1 -> conv1 (in-place)
I0828 16:46:27.041868  2555 net.cpp:150] Setting up relu1
I0828 16:46:27.041885  2555 net.cpp:157] Top shape: 150 96 55 55 (43560000)
I0828 16:46:27.041893  2555 net.cpp:165] Memory required for data: 441232800
I0828 16:46:27.041899  2555 layer_factory.hpp:77] Creating layer norm1
I0828 16:46:27.041923  2555 net.cpp:106] Creating Layer norm1
I0828 16:46:27.041932  2555 net.cpp:454] norm1 <- conv1
I0828 16:46:27.041941  2555 net.cpp:411] norm1 -> norm1
I0828 16:46:27.042322  2555 net.cpp:150] Setting up norm1
I0828 16:46:27.042346  2555 net.cpp:157] Top shape: 150 96 55 55 (43560000)
I0828 16:46:27.042352  2555 net.cpp:165] Memory required for data: 615472800
I0828 16:46:27.042371  2555 layer_factory.hpp:77] Creating layer pool1
I0828 16:46:27.042394  2555 net.cpp:106] Creating Layer pool1
I0828 16:46:27.042418  2555 net.cpp:454] pool1 <- norm1
I0828 16:46:27.042428  2555 net.cpp:411] pool1 -> pool1
I0828 16:46:27.042497  2555 net.cpp:150] Setting up pool1
I0828 16:46:27.042511  2555 net.cpp:157] Top shape: 150 96 27 27 (10497600)
I0828 16:46:27.042518  2555 net.cpp:165] Memory required for data: 657463200
I0828 16:46:27.042524  2555 layer_factory.hpp:77] Creating layer conv2
I0828 16:46:27.042549  2555 net.cpp:106] Creating Layer conv2
I0828 16:46:27.042557  2555 net.cpp:454] conv2 <- pool1
I0828 16:46:27.042569  2555 net.cpp:411] conv2 -> conv2
I0828 16:46:27.056870  2555 net.cpp:150] Setting up conv2
I0828 16:46:27.056918  2555 net.cpp:157] Top shape: 150 256 27 27 (27993600)
I0828 16:46:27.056926  2555 net.cpp:165] Memory required for data: 769437600
I0828 16:46:27.056947  2555 layer_factory.hpp:77] Creating layer relu2
I0828 16:46:27.056964  2555 net.cpp:106] Creating Layer relu2
I0828 16:46:27.056973  2555 net.cpp:454] relu2 <- conv2
I0828 16:46:27.056984  2555 net.cpp:397] relu2 -> conv2 (in-place)
I0828 16:46:27.057247  2555 net.cpp:150] Setting up relu2
I0828 16:46:27.057265  2555 net.cpp:157] Top shape: 150 256 27 27 (27993600)
I0828 16:46:27.057271  2555 net.cpp:165] Memory required for data: 881412000
I0828 16:46:27.057278  2555 layer_factory.hpp:77] Creating layer norm2
I0828 16:46:27.057297  2555 net.cpp:106] Creating Layer norm2
I0828 16:46:27.057307  2555 net.cpp:454] norm2 <- conv2
I0828 16:46:27.057318  2555 net.cpp:411] norm2 -> norm2
I0828 16:46:27.057627  2555 net.cpp:150] Setting up norm2
I0828 16:46:27.057652  2555 net.cpp:157] Top shape: 150 256 27 27 (27993600)
I0828 16:46:27.057667  2555 net.cpp:165] Memory required for data: 993386400
I0828 16:46:27.057682  2555 layer_factory.hpp:77] Creating layer pool2
I0828 16:46:27.057706  2555 net.cpp:106] Creating Layer pool2
I0828 16:46:27.057724  2555 net.cpp:454] pool2 <- norm2
I0828 16:46:27.057749  2555 net.cpp:411] pool2 -> pool2
I0828 16:46:27.057826  2555 net.cpp:150] Setting up pool2
I0828 16:46:27.057843  2555 net.cpp:157] Top shape: 150 256 13 13 (6489600)
I0828 16:46:27.057850  2555 net.cpp:165] Memory required for data: 1019344800
I0828 16:46:27.057857  2555 layer_factory.hpp:77] Creating layer conv3
I0828 16:46:27.057878  2555 net.cpp:106] Creating Layer conv3
I0828 16:46:27.057885  2555 net.cpp:454] conv3 <- pool2
I0828 16:46:27.057895  2555 net.cpp:411] conv3 -> conv3
I0828 16:46:27.091671  2555 net.cpp:150] Setting up conv3
I0828 16:46:27.091743  2555 net.cpp:157] Top shape: 150 384 13 13 (9734400)
I0828 16:46:27.091759  2555 net.cpp:165] Memory required for data: 1058282400
I0828 16:46:27.091794  2555 layer_factory.hpp:77] Creating layer relu3
I0828 16:46:27.091823  2555 net.cpp:106] Creating Layer relu3
I0828 16:46:27.091841  2555 net.cpp:454] relu3 <- conv3
I0828 16:46:27.091864  2555 net.cpp:397] relu3 -> conv3 (in-place)
I0828 16:46:27.092254  2555 net.cpp:150] Setting up relu3
I0828 16:46:27.092279  2555 net.cpp:157] Top shape: 150 384 13 13 (9734400)
I0828 16:46:27.092291  2555 net.cpp:165] Memory required for data: 1097220000
I0828 16:46:27.092303  2555 layer_factory.hpp:77] Creating layer conv4
I0828 16:46:27.092334  2555 net.cpp:106] Creating Layer conv4
I0828 16:46:27.092350  2555 net.cpp:454] conv4 <- conv3
I0828 16:46:27.092370  2555 net.cpp:411] conv4 -> conv4
I0828 16:46:27.118669  2555 net.cpp:150] Setting up conv4
I0828 16:46:27.118732  2555 net.cpp:157] Top shape: 150 384 13 13 (9734400)
I0828 16:46:27.118741  2555 net.cpp:165] Memory required for data: 1136157600
I0828 16:46:27.118757  2555 layer_factory.hpp:77] Creating layer relu4
I0828 16:46:27.118777  2555 net.cpp:106] Creating Layer relu4
I0828 16:46:27.118787  2555 net.cpp:454] relu4 <- conv4
I0828 16:46:27.118799  2555 net.cpp:397] relu4 -> conv4 (in-place)
I0828 16:46:27.119084  2555 net.cpp:150] Setting up relu4
I0828 16:46:27.119102  2555 net.cpp:157] Top shape: 150 384 13 13 (9734400)
I0828 16:46:27.119118  2555 net.cpp:165] Memory required for data: 1175095200
I0828 16:46:27.119127  2555 layer_factory.hpp:77] Creating layer conv5
I0828 16:46:27.119155  2555 net.cpp:106] Creating Layer conv5
I0828 16:46:27.119163  2555 net.cpp:454] conv5 <- conv4
I0828 16:46:27.119180  2555 net.cpp:411] conv5 -> conv5
I0828 16:46:27.137478  2555 net.cpp:150] Setting up conv5
I0828 16:46:27.137527  2555 net.cpp:157] Top shape: 150 256 13 13 (6489600)
I0828 16:46:27.137536  2555 net.cpp:165] Memory required for data: 1201053600
I0828 16:46:27.137557  2555 layer_factory.hpp:77] Creating layer relu5
I0828 16:46:27.137573  2555 net.cpp:106] Creating Layer relu5
I0828 16:46:27.137581  2555 net.cpp:454] relu5 <- conv5
I0828 16:46:27.137593  2555 net.cpp:397] relu5 -> conv5 (in-place)
I0828 16:46:27.137754  2555 net.cpp:150] Setting up relu5
I0828 16:46:27.137769  2555 net.cpp:157] Top shape: 150 256 13 13 (6489600)
I0828 16:46:27.137776  2555 net.cpp:165] Memory required for data: 1227012000
I0828 16:46:27.137784  2555 layer_factory.hpp:77] Creating layer pool5
I0828 16:46:27.137795  2555 net.cpp:106] Creating Layer pool5
I0828 16:46:27.137802  2555 net.cpp:454] pool5 <- conv5
I0828 16:46:27.137811  2555 net.cpp:411] pool5 -> pool5
I0828 16:46:27.137871  2555 net.cpp:150] Setting up pool5
I0828 16:46:27.137882  2555 net.cpp:157] Top shape: 150 256 6 6 (1382400)
I0828 16:46:27.137888  2555 net.cpp:165] Memory required for data: 1232541600
I0828 16:46:27.137895  2555 layer_factory.hpp:77] Creating layer fc6
I0828 16:46:27.137917  2555 net.cpp:106] Creating Layer fc6
I0828 16:46:27.137925  2555 net.cpp:454] fc6 <- pool5
I0828 16:46:27.137938  2555 net.cpp:411] fc6 -> fc6
I0828 16:46:28.469646  2555 net.cpp:150] Setting up fc6
I0828 16:46:28.469704  2555 net.cpp:157] Top shape: 150 4096 (614400)
I0828 16:46:28.469712  2555 net.cpp:165] Memory required for data: 1234999200
I0828 16:46:28.469728  2555 layer_factory.hpp:77] Creating layer relu6
I0828 16:46:28.469744  2555 net.cpp:106] Creating Layer relu6
I0828 16:46:28.469753  2555 net.cpp:454] relu6 <- fc6
I0828 16:46:28.469768  2555 net.cpp:397] relu6 -> fc6 (in-place)
I0828 16:46:28.470190  2555 net.cpp:150] Setting up relu6
I0828 16:46:28.470209  2555 net.cpp:157] Top shape: 150 4096 (614400)
I0828 16:46:28.470216  2555 net.cpp:165] Memory required for data: 1237456800
I0828 16:46:28.470223  2555 layer_factory.hpp:77] Creating layer drop6
I0828 16:46:28.470240  2555 net.cpp:106] Creating Layer drop6
I0828 16:46:28.470247  2555 net.cpp:454] drop6 <- fc6
I0828 16:46:28.470257  2555 net.cpp:397] drop6 -> fc6 (in-place)
I0828 16:46:28.470306  2555 net.cpp:150] Setting up drop6
I0828 16:46:28.470319  2555 net.cpp:157] Top shape: 150 4096 (614400)
I0828 16:46:28.470325  2555 net.cpp:165] Memory required for data: 1239914400
I0828 16:46:28.470332  2555 layer_factory.hpp:77] Creating layer fc7
I0828 16:46:28.470348  2555 net.cpp:106] Creating Layer fc7
I0828 16:46:28.470355  2555 net.cpp:454] fc7 <- fc6
I0828 16:46:28.470365  2555 net.cpp:411] fc7 -> fc7
I0828 16:46:29.058400  2555 net.cpp:150] Setting up fc7
I0828 16:46:29.058459  2555 net.cpp:157] Top shape: 150 4096 (614400)
I0828 16:46:29.058467  2555 net.cpp:165] Memory required for data: 1242372000
I0828 16:46:29.058485  2555 layer_factory.hpp:77] Creating layer relu7
I0828 16:46:29.058501  2555 net.cpp:106] Creating Layer relu7
I0828 16:46:29.058511  2555 net.cpp:454] relu7 <- fc7
I0828 16:46:29.058526  2555 net.cpp:397] relu7 -> fc7 (in-place)
I0828 16:46:29.058761  2555 net.cpp:150] Setting up relu7
I0828 16:46:29.058778  2555 net.cpp:157] Top shape: 150 4096 (614400)
I0828 16:46:29.058784  2555 net.cpp:165] Memory required for data: 1244829600
I0828 16:46:29.058791  2555 layer_factory.hpp:77] Creating layer drop7
I0828 16:46:29.058802  2555 net.cpp:106] Creating Layer drop7
I0828 16:46:29.058809  2555 net.cpp:454] drop7 <- fc7
I0828 16:46:29.058825  2555 net.cpp:397] drop7 -> fc7 (in-place)
I0828 16:46:29.058861  2555 net.cpp:150] Setting up drop7
I0828 16:46:29.058876  2555 net.cpp:157] Top shape: 150 4096 (614400)
I0828 16:46:29.058882  2555 net.cpp:165] Memory required for data: 1247287200
I0828 16:46:29.058909  2555 layer_factory.hpp:77] Creating layer fc8_food
I0828 16:46:29.058953  2555 net.cpp:106] Creating Layer fc8_food
I0828 16:46:29.058967  2555 net.cpp:454] fc8_food <- fc7
I0828 16:46:29.058982  2555 net.cpp:411] fc8_food -> fc8_food
I0828 16:46:29.060808  2555 net.cpp:150] Setting up fc8_food
I0828 16:46:29.060827  2555 net.cpp:157] Top shape: 150 12 (1800)
I0828 16:46:29.060834  2555 net.cpp:165] Memory required for data: 1247294400
I0828 16:46:29.060845  2555 layer_factory.hpp:77] Creating layer loss
I0828 16:46:29.060868  2555 net.cpp:106] Creating Layer loss
I0828 16:46:29.060874  2555 net.cpp:454] loss <- fc8_food
I0828 16:46:29.060883  2555 net.cpp:454] loss <- label
I0828 16:46:29.060895  2555 net.cpp:411] loss -> loss
I0828 16:46:29.060956  2555 layer_factory.hpp:77] Creating layer loss
…
I0828 16:46:29.063304  2555 net.cpp:322] The NetState phase (1) differed from the phase (0) specified by a rule in layer data
I0828 16:46:29.063536  2555 net.cpp:49] Initializing net from parameters: 
name: "AlexNet"
state {
  phase: TEST
}
layer {
  name: "data"
  type: "Data"
  top: "data"
  top: "label"
  include {
    phase: TEST
  }
  transform_param {
    mirror: false
    crop_size: 227
    mean_file: "/home/ubuntu/sb/capstone/transfer-learning/data/alexnet_4/alexnet_4_mean.binaryproto"
  }
  data_param {
    source: "/data/val_lmdb"
    batch_size: 50
    backend: LMDB
  }
}
layer {
  name: "conv1"
  type: "Convolution"
  bottom: "data"
  top: "conv1"
  param {
    lr_mult: 1
    decay_mult: 1
  }
  param {
    lr_mult: 2
    decay_mult: 0
  }
  convolution_param {
    num_output: 96
    kernel_size: 11
    stride: 4
    weight_filler {
      type: "gaussian"
      std: 0.01
    }
    bias_filler {
      type: "constant"
      value: 0
    }
  }
}
layer {
  name: "relu1"
  type: "ReLU"
  bottom: "conv1"
  top: "conv1"
}
layer {
  name: "norm1"
  type: "LRN"
  bottom: "conv1"
  top: "norm1"
  lrn_param {
    local_size: 5
    alpha: 0.0001
    beta: 0.75
  }
}
layer {
  name: "pool1"
  type: "Pooling"
  bottom: "norm1"
  top: "pool1"
  pooling_param {
    pool: MAX
    kernel_size: 3
    stride: 2
  }
}
layer {
  name: "conv2"
  type: "Convolution"
  bottom: "pool1"
  top: "conv2"
  param {
    lr_mult: 1
    decay_mult: 1
  }
  param {
    lr_mult: 2
    decay_mult: 0
  }
  convolution_param {
    num_output: 256
    pad: 2
    kernel_size: 5
    group: 2
    weight_filler {
      type: "gaussian"
      std: 0.01
    }
    bias_filler {
      type: "constant"
      value: 0.1
    }
  }
}
layer {
  name: "relu2"
  type: "ReLU"
  bottom: "conv2"
  top: "conv2"
}
layer {
  name: "norm2"
  type: "LRN"
  bottom: "conv2"
  top: "norm2"
  lrn_param {
    local_size: 5
    alpha: 0.0001
    beta: 0.75
  }
}
layer {
  name: "pool2"
  type: "Pooling"
  bottom: "norm2"
  top: "pool2"
  pooling_param {
    pool: MAX
    kernel_size: 3
    stride: 2
  }
}
layer {
  name: "conv3"
  type: "Convolution"
  bottom: "pool2"
  top: "conv3"
  param {
    lr_mult: 1
    decay_mult: 1
  }
  param {
    lr_mult: 2
    decay_mult: 0
  }
  convolution_param {
    num_output: 384
    pad: 1
    kernel_size: 3
    weight_filler {
      type: "gaussian"
      std: 0.01
    }
    bias_filler {
      type: "constant"
      value: 0
    }
  }
}
layer {
  name: "relu3"
  type: "ReLU"
  bottom: "conv3"
  top: "conv3"
}
layer {
  name: "conv4"
  type: "Convolution"
  bottom: "conv3"
  top: "conv4"
  param {
    lr_mult: 1
    decay_mult: 1
  }
  param {
    lr_mult: 2
    decay_mult: 0
  }
  convolution_param {
    num_output: 384
    pad: 1
    kernel_size: 3
    group: 2
    weight_filler {
      type: "gaussian"
      std: 0.01
    }
    bias_filler {
      type: "constant"
      value: 0.1
    }
  }
}
layer {
  name: "relu4"
  type: "ReLU"
  bottom: "conv4"
  top: "conv4"
}
layer {
  name: "conv5"
  type: "Convolution"
  bottom: "conv4"
  top: "conv5"
  param {
    lr_mult: 1
    decay_mult: 1
  }
  param {
    lr_mult: 2
    decay_mult: 0
  }
  convolution_param {
    num_output: 256
    pad: 1
    kernel_size: 3
    group: 2
    weight_filler {
      type: "gaussian"
      std: 0.01
    }
    bias_filler {
      type: "constant"
      value: 0.1
    }
  }
}
layer {
  name: "relu5"
  type: "ReLU"
  bottom: "conv5"
  top: "conv5"
}
layer {
  name: "pool5"
  type: "Pooling"
  bottom: "conv5"
  top: "pool5"
  pooling_param {
    pool: MAX
    kernel_size: 3
    stride: 2
  }
}
layer {
  name: "fc6"
  type: "InnerProduct"
  bottom: "pool5"
  top: "fc6"
  param {
    lr_mult: 1
    decay_mult: 1
  }
  param {
    lr_mult: 2
    decay_mult: 0
  }
  inner_product_param {
    num_output: 4096
    weight_filler {
      type: "gaussian"
      std: 0.005
    }
    bias_filler {
      type: "constant"
      value: 0.1
    }
  }
}
layer {
  name: "relu6"
  type: "ReLU"
  bottom: "fc6"
  top: "fc6"
}
layer {
  name: "drop6"
  type: "Dropout"
  bottom: "fc6"
  top: "fc6"
  dropout_param {
    dropout_ratio: 0.5
  }
}
layer {
  name: "fc7"
  type: "InnerProduct"
  bottom: "fc6"
  top: "fc7"
  param {
    lr_mult: 1
    decay_mult: 1
  }
  param {
    lr_mult: 2
    decay_mult: 0
  }
  inner_product_param {
    num_output: 4096
    weight_filler {
      type: "gaussian"
      std: 0.005
    }
    bias_filler {
      type: "constant"
      value: 0.1
    }
  }
}
layer {
  name: "relu7"
  type: "ReLU"
  bottom: "fc7"
  top: "fc7"
}
layer {
  name: "drop7"
  type: "Dropout"
  bottom: "fc7"
  top: "fc7"
  dropout_param {
    dropout_ratio: 0.5
  }
}
layer {
  name: "fc8_food"
  type: "InnerProduct"
  bottom: "fc7"
  top: "fc8_food"
  param {
    lr_mult: 1
    decay_mult: 1
  }
  param {
    lr_mult: 2
    decay_mult: 0
  }
  inner_product_param {
    num_output: 12
    weight_filler {
      type: "gaussian"
      std: 0.01
    }
    bias_filler {
      type: "constant"
      value: 0
    }
  }
}
layer {
  name: "accuracy"
  type: "Accuracy"
  bottom: "fc8_food"
  bottom: "label"
  top: "accuracy"
  include {
    phase: TEST
  }
}
layer {
  name: "loss"
  type: "SoftmaxWithLoss"
  bottom: "fc8_food"
  bottom: "label"
  top: "loss"
}
I0828 16:46:29.063724  2555 layer_factory.hpp:77] Creating layer data
I0828 16:46:29.064208  2555 net.cpp:106] Creating Layer data
I0828 16:46:29.064224  2555 net.cpp:411] data -> data
I0828 16:46:29.064277  2555 net.cpp:411] data -> label
I0828 16:46:29.064291  2555 data_transformer.cpp:25] Loading mean file from: /home/ubuntu/sb/capstone/transfer-learning/data/alexnet_4/alexnet_4_mean.binaryproto
I0828 16:46:29.065820  2569 db_lmdb.cpp:38] Opened lmdb /data/val_lmdb
I0828 16:46:29.069975  2555 data_layer.cpp:41] output data size: 50,3,227,227
I0828 16:46:29.137078  2555 net.cpp:150] Setting up data
I0828 16:46:29.137173  2555 net.cpp:157] Top shape: 50 3 227 227 (7729350)
I0828 16:46:29.137197  2555 net.cpp:157] Top shape: 50 (50)
I0828 16:46:29.137209  2555 net.cpp:165] Memory required for data: 30917600
I0828 16:46:29.137229  2555 layer_factory.hpp:77] Creating layer label_data_1_split
I0828 16:46:29.137256  2555 net.cpp:106] Creating Layer label_data_1_split
I0828 16:46:29.137265  2555 net.cpp:454] label_data_1_split <- label
I0828 16:46:29.137280  2555 net.cpp:411] label_data_1_split -> label_data_1_split_0
I0828 16:46:29.137300  2555 net.cpp:411] label_data_1_split -> label_data_1_split_1
I0828 16:46:29.137480  2555 net.cpp:150] Setting up label_data_1_split
I0828 16:46:29.137516  2555 net.cpp:157] Top shape: 50 (50)
I0828 16:46:29.137531  2555 net.cpp:157] Top shape: 50 (50)
I0828 16:46:29.137542  2555 net.cpp:165] Memory required for data: 30918000
I0828 16:46:29.137555  2555 layer_factory.hpp:77] Creating layer conv1
I0828 16:46:29.137589  2555 net.cpp:106] Creating Layer conv1
I0828 16:46:29.137603  2555 net.cpp:454] conv1 <- data
I0828 16:46:29.137624  2555 net.cpp:411] conv1 -> conv1
I0828 16:46:29.143499  2555 net.cpp:150] Setting up conv1
I0828 16:46:29.143554  2555 net.cpp:157] Top shape: 50 96 55 55 (14520000)
I0828 16:46:29.143563  2555 net.cpp:165] Memory required for data: 88998000
I0828 16:46:29.143585  2555 layer_factory.hpp:77] Creating layer relu1
I0828 16:46:29.143602  2555 net.cpp:106] Creating Layer relu1
I0828 16:46:29.143610  2555 net.cpp:454] relu1 <- conv1
I0828 16:46:29.143622  2555 net.cpp:397] relu1 -> conv1 (in-place)
I0828 16:46:29.143856  2555 net.cpp:150] Setting up relu1
I0828 16:46:29.143872  2555 net.cpp:157] Top shape: 50 96 55 55 (14520000)
I0828 16:46:29.143879  2555 net.cpp:165] Memory required for data: 147078000
I0828 16:46:29.143887  2555 layer_factory.hpp:77] Creating layer norm1
I0828 16:46:29.143903  2555 net.cpp:106] Creating Layer norm1
I0828 16:46:29.143910  2555 net.cpp:454] norm1 <- conv1
I0828 16:46:29.143921  2555 net.cpp:411] norm1 -> norm1
I0828 16:46:29.144232  2555 net.cpp:150] Setting up norm1
I0828 16:46:29.144249  2555 net.cpp:157] Top shape: 50 96 55 55 (14520000)
I0828 16:46:29.144256  2555 net.cpp:165] Memory required for data: 205158000
I0828 16:46:29.144263  2555 layer_factory.hpp:77] Creating layer pool1
I0828 16:46:29.144276  2555 net.cpp:106] Creating Layer pool1
I0828 16:46:29.144284  2555 net.cpp:454] pool1 <- norm1
I0828 16:46:29.144294  2555 net.cpp:411] pool1 -> pool1
I0828 16:46:29.144348  2555 net.cpp:150] Setting up pool1
I0828 16:46:29.144361  2555 net.cpp:157] Top shape: 50 96 27 27 (3499200)
I0828 16:46:29.144367  2555 net.cpp:165] Memory required for data: 219154800
I0828 16:46:29.144374  2555 layer_factory.hpp:77] Creating layer conv2
I0828 16:46:29.144392  2555 net.cpp:106] Creating Layer conv2
I0828 16:46:29.144399  2555 net.cpp:454] conv2 <- pool1
I0828 16:46:29.144410  2555 net.cpp:411] conv2 -> conv2
I0828 16:46:29.157938  2555 net.cpp:150] Setting up conv2
I0828 16:46:29.157997  2555 net.cpp:157] Top shape: 50 256 27 27 (9331200)
I0828 16:46:29.158005  2555 net.cpp:165] Memory required for data: 256479600
I0828 16:46:29.158046  2555 layer_factory.hpp:77] Creating layer relu2
I0828 16:46:29.158077  2555 net.cpp:106] Creating Layer relu2
I0828 16:46:29.158087  2555 net.cpp:454] relu2 <- conv2
I0828 16:46:29.158098  2555 net.cpp:397] relu2 -> conv2 (in-place)
I0828 16:46:29.158474  2555 net.cpp:150] Setting up relu2
I0828 16:46:29.158493  2555 net.cpp:157] Top shape: 50 256 27 27 (9331200)
I0828 16:46:29.158500  2555 net.cpp:165] Memory required for data: 293804400
I0828 16:46:29.158507  2555 layer_factory.hpp:77] Creating layer norm2
I0828 16:46:29.158525  2555 net.cpp:106] Creating Layer norm2
I0828 16:46:29.158532  2555 net.cpp:454] norm2 <- conv2
I0828 16:46:29.158543  2555 net.cpp:411] norm2 -> norm2
I0828 16:46:29.158789  2555 net.cpp:150] Setting up norm2
I0828 16:46:29.158810  2555 net.cpp:157] Top shape: 50 256 27 27 (9331200)
I0828 16:46:29.158818  2555 net.cpp:165] Memory required for data: 331129200
I0828 16:46:29.158824  2555 layer_factory.hpp:77] Creating layer pool2
I0828 16:46:29.158838  2555 net.cpp:106] Creating Layer pool2
I0828 16:46:29.158845  2555 net.cpp:454] pool2 <- norm2
I0828 16:46:29.158855  2555 net.cpp:411] pool2 -> pool2
I0828 16:46:29.158910  2555 net.cpp:150] Setting up pool2
I0828 16:46:29.158921  2555 net.cpp:157] Top shape: 50 256 13 13 (2163200)
I0828 16:46:29.158927  2555 net.cpp:165] Memory required for data: 339782000
I0828 16:46:29.158933  2555 layer_factory.hpp:77] Creating layer conv3
I0828 16:46:29.158953  2555 net.cpp:106] Creating Layer conv3
I0828 16:46:29.158960  2555 net.cpp:454] conv3 <- pool2
I0828 16:46:29.158972  2555 net.cpp:411] conv3 -> conv3
I0828 16:46:29.193949  2555 net.cpp:150] Setting up conv3
I0828 16:46:29.194046  2555 net.cpp:157] Top shape: 50 384 13 13 (3244800)
I0828 16:46:29.194066  2555 net.cpp:165] Memory required for data: 352761200
I0828 16:46:29.194102  2555 layer_factory.hpp:77] Creating layer relu3
I0828 16:46:29.194124  2555 net.cpp:106] Creating Layer relu3
I0828 16:46:29.194134  2555 net.cpp:454] relu3 <- conv3
I0828 16:46:29.194149  2555 net.cpp:397] relu3 -> conv3 (in-place)
I0828 16:46:29.194696  2555 net.cpp:150] Setting up relu3
I0828 16:46:29.194759  2555 net.cpp:157] Top shape: 50 384 13 13 (3244800)
I0828 16:46:29.194768  2555 net.cpp:165] Memory required for data: 365740400
I0828 16:46:29.194779  2555 layer_factory.hpp:77] Creating layer conv4
I0828 16:46:29.194813  2555 net.cpp:106] Creating Layer conv4
I0828 16:46:29.194821  2555 net.cpp:454] conv4 <- conv3
I0828 16:46:29.194839  2555 net.cpp:411] conv4 -> conv4
I0828 16:46:29.222623  2555 net.cpp:150] Setting up conv4
I0828 16:46:29.222712  2555 net.cpp:157] Top shape: 50 384 13 13 (3244800)
I0828 16:46:29.222730  2555 net.cpp:165] Memory required for data: 378719600
I0828 16:46:29.222759  2555 layer_factory.hpp:77] Creating layer relu4
I0828 16:46:29.222792  2555 net.cpp:106] Creating Layer relu4
I0828 16:46:29.222811  2555 net.cpp:454] relu4 <- conv4
I0828 16:46:29.222836  2555 net.cpp:397] relu4 -> conv4 (in-place)
I0828 16:46:29.223443  2555 net.cpp:150] Setting up relu4
I0828 16:46:29.223506  2555 net.cpp:157] Top shape: 50 384 13 13 (3244800)
I0828 16:46:29.223522  2555 net.cpp:165] Memory required for data: 391698800
I0828 16:46:29.223539  2555 layer_factory.hpp:77] Creating layer conv5
I0828 16:46:29.223582  2555 net.cpp:106] Creating Layer conv5
I0828 16:46:29.223601  2555 net.cpp:454] conv5 <- conv4
I0828 16:46:29.223629  2555 net.cpp:411] conv5 -> conv5
I0828 16:46:29.242745  2555 net.cpp:150] Setting up conv5
I0828 16:46:29.242825  2555 net.cpp:157] Top shape: 50 256 13 13 (2163200)
I0828 16:46:29.242836  2555 net.cpp:165] Memory required for data: 400351600
I0828 16:46:29.242863  2555 layer_factory.hpp:77] Creating layer relu5
I0828 16:46:29.242883  2555 net.cpp:106] Creating Layer relu5
I0828 16:46:29.242892  2555 net.cpp:454] relu5 <- conv5
I0828 16:46:29.242905  2555 net.cpp:397] relu5 -> conv5 (in-place)
I0828 16:46:29.243196  2555 net.cpp:150] Setting up relu5
I0828 16:46:29.243213  2555 net.cpp:157] Top shape: 50 256 13 13 (2163200)
I0828 16:46:29.243232  2555 net.cpp:165] Memory required for data: 409004400
I0828 16:46:29.243242  2555 layer_factory.hpp:77] Creating layer pool5
I0828 16:46:29.243271  2555 net.cpp:106] Creating Layer pool5
I0828 16:46:29.243279  2555 net.cpp:454] pool5 <- conv5
I0828 16:46:29.243290  2555 net.cpp:411] pool5 -> pool5
I0828 16:46:29.243356  2555 net.cpp:150] Setting up pool5
I0828 16:46:29.243369  2555 net.cpp:157] Top shape: 50 256 6 6 (460800)
I0828 16:46:29.243376  2555 net.cpp:165] Memory required for data: 410847600
I0828 16:46:29.243383  2555 layer_factory.hpp:77] Creating layer fc6
I0828 16:46:29.243397  2555 net.cpp:106] Creating Layer fc6
I0828 16:46:29.243404  2555 net.cpp:454] fc6 <- pool5
I0828 16:46:29.243415  2555 net.cpp:411] fc6 -> fc6
I0828 16:46:30.565443  2555 net.cpp:150] Setting up fc6
I0828 16:46:30.565543  2555 net.cpp:157] Top shape: 50 4096 (204800)
I0828 16:46:30.565552  2555 net.cpp:165] Memory required for data: 411666800
I0828 16:46:30.565595  2555 layer_factory.hpp:77] Creating layer relu6
I0828 16:46:30.565618  2555 net.cpp:106] Creating Layer relu6
I0828 16:46:30.565626  2555 net.cpp:454] relu6 <- fc6
I0828 16:46:30.565641  2555 net.cpp:397] relu6 -> fc6 (in-place)
I0828 16:46:30.566018  2555 net.cpp:150] Setting up relu6
I0828 16:46:30.566078  2555 net.cpp:157] Top shape: 50 4096 (204800)
I0828 16:46:30.566087  2555 net.cpp:165] Memory required for data: 412486000
I0828 16:46:30.566098  2555 layer_factory.hpp:77] Creating layer drop6
I0828 16:46:30.566118  2555 net.cpp:106] Creating Layer drop6
I0828 16:46:30.566125  2555 net.cpp:454] drop6 <- fc6
I0828 16:46:30.566139  2555 net.cpp:397] drop6 -> fc6 (in-place)
I0828 16:46:30.566222  2555 net.cpp:150] Setting up drop6
I0828 16:46:30.566236  2555 net.cpp:157] Top shape: 50 4096 (204800)
I0828 16:46:30.566242  2555 net.cpp:165] Memory required for data: 413305200
I0828 16:46:30.566249  2555 layer_factory.hpp:77] Creating layer fc7
I0828 16:46:30.566265  2555 net.cpp:106] Creating Layer fc7
I0828 16:46:30.566272  2555 net.cpp:454] fc7 <- fc6
I0828 16:46:30.566284  2555 net.cpp:411] fc7 -> fc7
I0828 16:46:31.146522  2555 net.cpp:150] Setting up fc7
I0828 16:46:31.146587  2555 net.cpp:157] Top shape: 50 4096 (204800)
I0828 16:46:31.146595  2555 net.cpp:165] Memory required for data: 414124400
I0828 16:46:31.146612  2555 layer_factory.hpp:77] Creating layer relu7
I0828 16:46:31.146631  2555 net.cpp:106] Creating Layer relu7
I0828 16:46:31.146641  2555 net.cpp:454] relu7 <- fc7
I0828 16:46:31.146653  2555 net.cpp:397] relu7 -> fc7 (in-place)
I0828 16:46:31.147102  2555 net.cpp:150] Setting up relu7
I0828 16:46:31.147119  2555 net.cpp:157] Top shape: 50 4096 (204800)
I0828 16:46:31.147126  2555 net.cpp:165] Memory required for data: 414943600
I0828 16:46:31.147133  2555 layer_factory.hpp:77] Creating layer drop7
I0828 16:46:31.147145  2555 net.cpp:106] Creating Layer drop7
I0828 16:46:31.147152  2555 net.cpp:454] drop7 <- fc7
I0828 16:46:31.147163  2555 net.cpp:397] drop7 -> fc7 (in-place)
I0828 16:46:31.147209  2555 net.cpp:150] Setting up drop7
I0828 16:46:31.147222  2555 net.cpp:157] Top shape: 50 4096 (204800)
I0828 16:46:31.147228  2555 net.cpp:165] Memory required for data: 415762800
I0828 16:46:31.147234  2555 layer_factory.hpp:77] Creating layer fc8_food
I0828 16:46:31.147248  2555 net.cpp:106] Creating Layer fc8_food
I0828 16:46:31.147254  2555 net.cpp:454] fc8_food <- fc7
I0828 16:46:31.147266  2555 net.cpp:411] fc8_food -> fc8_food
I0828 16:46:31.149273  2555 net.cpp:150] Setting up fc8_food
I0828 16:46:31.149348  2555 net.cpp:157] Top shape: 50 12 (600)
I0828 16:46:31.149355  2555 net.cpp:165] Memory required for data: 415765200
I0828 16:46:31.149374  2555 layer_factory.hpp:77] Creating layer fc8_food_fc8_food_0_split
I0828 16:46:31.149394  2555 net.cpp:106] Creating Layer fc8_food_fc8_food_0_split
I0828 16:46:31.149404  2555 net.cpp:454] fc8_food_fc8_food_0_split <- fc8_food
I0828 16:46:31.149417  2555 net.cpp:411] fc8_food_fc8_food_0_split -> fc8_food_fc8_food_0_split_0
I0828 16:46:31.149436  2555 net.cpp:411] fc8_food_fc8_food_0_split -> fc8_food_fc8_food_0_split_1
I0828 16:46:31.149549  2555 net.cpp:150] Setting up fc8_food_fc8_food_0_split
I0828 16:46:31.149576  2555 net.cpp:157] Top shape: 50 12 (600)
I0828 16:46:31.149585  2555 net.cpp:157] Top shape: 50 12 (600)
I0828 16:46:31.149590  2555 net.cpp:165] Memory required for data: 415770000
I0828 16:46:31.149598  2555 layer_factory.hpp:77] Creating layer accuracy
I0828 16:46:31.149624  2555 net.cpp:106] Creating Layer accuracy
I0828 16:46:31.149633  2555 net.cpp:454] accuracy <- fc8_food_fc8_food_0_split_0
I0828 16:46:31.149642  2555 net.cpp:454] accuracy <- label_data_1_split_0
I0828 16:46:31.149653  2555 net.cpp:411] accuracy -> accuracy
…
